data.pth (torch, 3519 bytes, 6 tensors)

l1.weight f4 [8, 24]
00000000: d8f4 a13e 4276 e83c 3551 db3e aa3c c63e
00000010: 1eb9 e53e e4b1 ba3e 618e ddbe 00b0 b63e
00000020: 4c94 fd3e 5f53 debe 1a75 df3e 947f 073e
00000030: 01b6 c33e 7cdc bf3e 1de2 283e 8cc8 ab3e
00000040: d66b 9fbe aed9 843e f383 7dbe 17fa 0f3f
00000050: 4290 803e 1f03 d63e 4919 403e 84d0 d93e
00000060: bb30 efbd f0ff 503d 0a20 d63e ed20 5e3e
00000070: c55c 873e e53d c73e 88ac afbe fa64 b23e
00000080: f15c 873e df94 afbe f5a0 dc3e fe99 05be
00000090: bfb6 d33e 30d0 8e3e e303 f43e fc77 d23e
000000a0: b78f 98bd 6ad2 edbd 9978 89be fe9f afbe
000000b0: cf0f c4bd 8e78 f83e 0923 b93e dc5d cab7
000000c0: 3757 33be 864d 44be 6e08 a2bd 8bc0 16be
000000d0: 10a6 39be aad0 333e 6015 0e3c a620 393e
000000e0: 446a 12be 4869 233e 9d0a f2bd d4cd 12bd
000000f0: 3a48 02be 18e0 dc3d 3e79 29be 20cd efbb
00000100: 750f 12be 542d 8b3d 80ae 283b 5613 303e
00000110: ecd9 39be f62d 503e e826 efbd bfac f4bd
00000120: 4573 86bb c9ea e5bd 4128 7d3e 3b82 7b3e
00000130: bad9 ee3e 00dc 113f 31d5 cabe 70ff fc3e
00000140: 4292 a33e 9cd6 cabe e42e fa3e 9362 8cbe
00000150: be5e 143f 58d8 e63e 8362 0e3f 92d6 5d3e
00000160: 21d5 1ebd 5743 53bd 3cf7 b6be 80d6 cabe
00000170: 2d62 f1bd 9b01 be3d 6fe8 d13d 26e2 5537
00000180: b63b de3e 56dd 873e 9b18 b7bd 0b42 c9be
00000190: 5a07 9fbe 697c a2be 8e7c a2be 191d 71bd
000001a0: 8032 0fbe 0278 a2be 7784 a2be 682a ba3e
000001b0: 4128 72be e076 20be 4b34 47be 0b74 27bd
000001c0: d406 98be 41a1 b93d 3b2a 29be 01dd 3a3f
000001d0: 4863 df3e d2ed 2dbd 4b6c dbbb afd7 c03e
000001e0: 231b ce3d 25b5 d0bd 003f a13e caad 6b3e
000001f0: b7a8 b63e e016 5a3e 7a25 a9be 758f d13e
00000200: c1fa 3e3e 3720 a9be 63ad b13e 100a 52be
00000210: 5a5e 883e 16d6 f53e 6b1a 2b3e 3a51 823e
00000220: b8e4 1bbe 5809 35bc de0a 2fbd 7628 a9be
00000230: ceca 67be 9467 8e3e 1de6 ef3e b177 81bd
00000240: f573 123f 6d9c c13e 7984 04bd 4cb9 483c
00000250: 7924 1a3b d40c 9ebe 2b05 9ebe 0b66 6dbe
00000260: 2f53 9dbd d108 9ebe 6012 9ebe 9091 833e
00000270: cc0b 9ebe 1709 9ebe d436 e03c fa9b 27be
00000280: dd88 78be fe34 863e 9f59 f0bd dfd8 f63e
00000290: 1ef5 783e f69f a0bd 18dc 99be 9b9f 023e
000002a0: 014f 40be 3f32 44be 34b8 eabd 439f d4bb
000002b0: 77ed c2bd b1bd c9be 0f5a 213f 80d4 22be
000002c0: 812b 87be 5ae4 1f3f ebdc dbbe 7a82 0bbe
000002d0: 2e71 99be c487 64be 4314 83bc 1aa7 52be
000002e0: 390f 163f 7033 6f3c 53db 1b3f 3b30 29bf
000002f0: a272 acbe cccb 05be 8bf1 a1be a28b 783e
0.31632113 0.028376702 0.42835394 0.38718158 0.44867796 0.36463845 -0.4327269 0.35681152
0.49527204 -0.43422982 0.4364403 0.13232261 0.38224795 0.37472904 0.16492505 0.33551443
-0.3113696 0.25947326 -0.24757366 0.5624098 0.2511006 0.41799256 0.18759646 0.42541897
-0.116792165 0.05102533 0.4182132 0.21692248 0.26437965 0.3891441 -0.34311318 0.34842664
0.26438096 -0.34293267 0.4309155 -0.13047025 0.41350362 0.2789321 0.47659215 0.41107166
-0.074492864 -0.11612399 -0.2684982 -0.34301752 -0.09573328 0.48529476 0.36159542 -2.4123983e-05
-0.17513739 -0.19170198 -0.07911764 -0.14721887 -0.18129754 0.17560068 0.008672088 0.1807886
-0.1429835 0.1595813 -0.118184306 -0.035840824 -0.12722865 0.1078493 -0.16550156 -0.007318154
-0.14263709 0.06795755 0.0025738776 0.17194876 -0.18149537 0.20330033 -0.11677343 -0.11947011
-0.0041030967 -0.11226422 0.24722387 0.24561398 0.46650487 0.5697632 -0.39615777 0.49413633
0.31947523 -0.3961686 0.488639 -0.27418956 0.57957065 0.45086932 0.55619067 0.21663883
-0.038777474 -0.051577892 -0.357355 -0.39616776 -0.11786304 0.0927765 0.10249411 1.2748444e-05
0.4340493 0.26536053 -0.0894024 -0.393082 -0.31060296 -0.31735542 -0.31735653 -0.05886564
-0.13984108 -0.31732184 -0.31741688 0.36360478 -0.23648168 -0.15670347 -0.19453542 -0.04088215
-0.2969271 0.0906396 -0.16520016 0.72993475 0.43630433 -0.04246313 -0.006696259 0.37664554
0.1006377 -0.101908006 0.31493378 0.23015514 0.35675594 0.21297789 -0.33036405 0.40929762
0.18650343 -0.3303239 0.34702596 -0.20511651 0.26634485 0.48014897 0.16709296 0.25452596
-0.15223968 -0.011049591 -0.042734973 -0.33038682 -0.22635958 0.278134 0.4685525 -0.063216574
0.57208186 0.37814656 -0.0323529 0.0122512095 0.0023520275 -0.30869162 -0.30863318 -0.23183458
-0.07681882 -0.308661 -0.30873394 0.25696993 -0.30868375 -0.3086631 0.027369894 -0.16368094
-0.24270959 0.26212305 -0.11735844 0.48212335 0.24312255 -0.0784301 -0.3005073 0.12756197
-0.18780138 -0.19159792 -0.11460915 -0.006488712 -0.09517949 -0.39402536 0.63028044 -0.15901375
-0.26400378 0.6245781 -0.42941985 -0.13623992 -0.29969162 -0.22317415 -0.016000872 -0.20571557
0.5861698 0.014599666 0.6088154 -0.6608922 -0.33681208 -0.13066024 -0.31629595 0.24272016

l1.bias f4 [8]
00000000: d43a 133f 5c96 af3e fad5 41be 3fd5 ca3e
00000010: 9878 a23e bd20 a93e 6f08 9e3e a22f 293f
0.5751164 0.34294403 -0.18929282 0.3961582 0.3173263 0.3303279 0.3086581 0.66088307

l2.weight f4 [8, 8]
00000000: 9e51 0a3e 2e2e a4bd 30d8 853d f791 0a3e
00000010: 25c8 a4be 0ded d53e 2118 acbe 61a0 763f
00000020: acce 3cbe 273b 773b a67b a7be fbc5 eabe
00000030: 5027 6f3d 5067 d0be 2994 9dbe 4e36 503f
00000040: 1b04 6e3f 7dd7 793f b4d8 27be c890 c43e
00000050: d5d8 0dbf 6dad 063f 405b 49bf fd87 5bbe
00000060: fcd7 cf3d 4fd1 b7be cc77 eabd 54ab 02bf
00000070: 8ccd 78be 34d9 ccbe 9e76 f2be abc8 723f
00000080: 9c4d 1a3f 89a3 dbbe 716b a13e 987e 89be
00000090: 7e61 453f 6751 0abf b9b5 263f 75ea e1be
000000a0: 0167 153f 42d6 453f f0a9 933c 957f 233f
000000b0: 4c53 f5be 2b5c 753f c10e b9be d87a a0be
000000c0: 8e7a 4d3f 20e8 02bf 5a94 973e 572f eabe
000000d0: 853b 323f adae b1be 7582 4e3f f740 a7be
000000e0: b404 dfbd 29b4 99be 545a f53d c0fa a5bc
000000f0: ab7d 3fbe 8034 a6be d081 9d3c 4a80 9ebe
0.13507697 -0.080166206 0.06535375 0.13532244 -0.32183948 0.41782418 -0.3361216 0.9633847
-0.18438214 0.0037724467 -0.32711524 -0.45854172 0.0583871 -0.4070382 -0.307771 0.8133286
0.92975014 0.97594434 -0.1639126 0.3839171 -0.55408984 0.52608377 -0.7865486 -0.21438594
0.101486176 -0.35901877 -0.11448631 -0.51042676 -0.2429716 -0.40009463 -0.47356123 0.94837445
0.6027467 -0.42898205 0.31527284 -0.26854396 0.77101886 -0.5403046 0.65121037 -0.4412419
0.58360296 0.77280056 0.018025368 0.6386655 -0.47915113 0.9584376 -0.3614407 -0.31343722
0.8026513 -0.51135445 0.2960537 -0.45739242 0.6962207 -0.3470358 0.8066781 -0.32666752
-0.10889569 -0.30020264 0.11980119 -0.020261168 -0.18700282 -0.3246193 0.019226938 -0.30957252

l2.bias f4 [8]
00000000: 97e0 a43e 8d94 063f f9ba 133e 24e6 013f
00000010: 2d9b db3e ad28 a43e cf65 9d3e 2004 8ebe
0.32202598 0.5257042 0.14426793 0.5074179 0.42891827 0.32062283 0.30741736 -0.27737522

l3.weight f4 [3, 8]
00000000: 6f4a 743f 994f 173f 73bf 92bf c156 533f
00000010: 59a0 07bf b8ba 72bf 8148 50bf 8872 663d
00000020: f0fe b1bd dc8f 20bf 7440 953f 0019 89bf
00000030: e929 28bf f6e8 113f 8fa8 29bf d85f 8abd
00000040: 84ed 99bf 07f4 75be 5d1b 1ebf ecc5 e6be
00000050: a6e0 563f ce1a 1bbf f17d 373f 3d6f 96be
0.95426077 0.5910583 -1.1464676 0.8255425 -0.52979046 -0.9481616 -0.8136063 0.05626157
-0.086912036 -0.6271951 1.1660295 -1.0710754 -0.6568895 0.56996095 -0.66272825 -0.06756562
-1.2025609 -0.2401887 -0.61760503 -0.45072877 0.83936536 -0.60587776 0.71676546 -0.29381743

l3.bias f4 [3]
00000000: 4cc1 413e 44e4 df3e 58c6 67be
0.18921393 0.4372884 -0.22634256
